checkpoints/ppo_dirichlet.pt (torch, 433121 bytes, 7 tensors)

shared.0.weight f4 [256, 155]
00000000: e7a0 7a3d fb5b b23d 066a fcb9 f1cb be3d
00000010: 012e 3b3a deae 8a3c b939 39bd 8394 4d3d
00000020: b6ea a83d 4911 8abd 1739 e63d 8c7f 0b3d
00000030: bf5f b13d 88a6 903c 0de6 693d f489 53bd
00000040: 0251 e23c 336e 3ebc 212f c8bc eb8d 27bd
00000050: dd35 45bd d048 a6bb 1cf2 acbc 8299 4d3d
00000060: 29ab 6dbd 1e2c 0fbd 8beb 28bd c98e fbbc
00000070: 4645 6c3c 60cb 94bd dd33 fb3c 14c3 c2bd
00000080: 1932 573d ebf6 d8bc cd3a 3abd 1a85 e03c
00000090: 596f edbb dce5 2d3d a39e 26bc d300 eabc
000000a0: c998 9e3c 6c52 1ebb 33e9 193d d6b7 ae3d
000000b0: a81e 843d 55a5 a1bb 3280 5b3d 77c5 033d
000000c0: 5892 863c e7f4 31bd 4fc1 aebd 2335 6cbd
000000d0: 4ea2 88bd e2ad 943d 9915 8c3c 8c32 143d
000000e0: 95c3 97ba 0657 02bd 5ce4 6c3d 20e7 99bd
000000f0: d47d 003c 9df0 93bd 6656 843d 31de f9bb
00000100: 1f88 603d c49e 01bd c587 593d e766 8abd
00000110: 0f29 76bd 5743 9dbd 4dcb a03d 1b73 0c3d
00000120: df56 843d 3598 93bd 17df 9dbd 9996 25bd
00000130: 0e76 afbc 9bce 553d 4917 613d 9189 ab3d
00000140: 7876 74bd aecd 5abd 3f65 093d 9a9f 36bd
00000150: d3b3 5a3d a702 1ebd 7cff a83c f69b a8bd
00000160: 6717 63bd 48e6 793c 8ead 813c 3efe d8bc
00000170: 455f bd3c 2ecc 1e3d 5bb5 5fbd 11a9 01bc
00000180: 0666 d43d cc89 b43c 035f d8bb 39f0 87bd
00000190: 8adb 31bd d34f 123d 73cd b83b 55c0 4ebd
000001a0: f65a 30bc 0d5c 38bd 714e 32bd 05f5 83bd
000001b0: 3e7d 79bd c64e efbc 6daa a73d 528b 203b
000001c0: 1707 5c3c 3811 49bd e26f a2bd 9804 4abd
000001d0: a8c0 353c f412 a4bd a3ed e5bc 9a75 ccbc
000001e0: f359 bcbc e5b1 e9bc a099 f5bc d3e2 16bd
000001f0: 5e4f 65bd 8208 9dbd eb65 d8bc 8ae9 c8bd
00000200: 0ac9 143d 6923 06bd 911c 803d 7d2c f4bc
00000210: 854b 8ebd a54c 4c3d 6ef8 02bd 3cda b5bc
00000220: 711b 3ebd a5f8 a2bd d931 ae3c 8447 4fbc
00000230: 09b5 773c b105 a1bd 95f6 5d3d 97f4 69bd
00000240: c3af 19bd 02d2 1a3d d4d7 5b3d e5cc 923d
00000250: f858 b23d 5a7f 9fbd 0b25 963d f7c4 88bc
00000260: 643b 63b9 a1d1 9ebc 8b0e e53d 7dbd 7cbd
00000270: fe5f 6f3d fb61 573d 8e36 d83c 25a2 5cbc
00000280: ee98 ad3d 11e5 6a3c 3dda 9f3c 45c5 94bd
00000290: d522 303d 283c 6e3a e8ea 59bc 413f 8c3d
000002a0: 0448 aebb 6884 2bbd 5f3d 54bd 38a8 6dba
000002b0: 360d 793d 4201 05ba b273 6ebd 1b22 9b3b
000002c0: 1225 1cbd f9a5 5f3d 54c8 9f3d 3e85 7dbd
000002d0: 3d9b 083d f7e5 ff3c 2d10 103d 94cd ebbc
000002e0: 5a2c 003d 417d 443d e412 933b 5023 ad3b
000002f0: e168 18ba 2008 1c3d b794 d3bc bcc2 a2bc
00000300: 5d7c 303d 9c57 ad3d 4225 b6bc 85b8 a5bc
00000310: 1027 acbb bf66 fcba c6f6 ae3c 2959 133c
00000320: b5d8 3abd 6d52 31bd 19fb 543d b807 2d3d
00000330: 28a0 d73b 935f 51bd 2d15 83bd 88ba ccbd
00000340: b0c1 0fbd d31c 1f3d 1ace 183d 7e4e fb3c
00000350: ff7d 86bd 1dba d7bc 10d7 e7bc 738e a33d
00000360: d945 983b 3df2 6abc 78d2 443d 7d4a e4bc
00000370: dbf9 4cbd f2f0 b63d fd81 c9bc 90c4 08bc
00000380: 9994 76bd 3c36 663d 6d43 5e3d 0098 3a3d
00000390: 4b8d 94bd 9b30 c2bd 8307 9dbd ffd9 a43d
000003a0: 7151 e33c 06f7 273d f8cf ea3c b359 393c
000003b0: 57f3 913c cb80 50bd d6f7 a6bd bcd1 9abd
000003c0: c039 5e3c 1621 06bd 0e3e 273b 5dfa f83a
000003d0: d2df 1fbc c3ac 9fbd 8c75 86bd 8b51 033c
000003e0: 7dfa 66bd c5cd 0e3d c304 63bd 5bc8 19bd
000003f0: d5fd 6b3c d9a7 bebc 5a28 92ba 4e34 c4bd
0.061188605 0.0870895 -0.0004814418 0.093162425 0.0007140339 0.016929086 -0.045221064 0.05019046
0.082478926 -0.06741578 0.11241358 0.034057185 0.0866084 0.017657533 0.05710416 -0.051645234
0.027626518 -0.011622953 -0.024436535 -0.040906828 -0.04814707 -0.005074598 -0.02111154 0.050195225
-0.05802456 -0.034954183 -0.041240256 -0.030707734 0.014420813 -0.07265353 0.030664379 -0.095098644
0.05253801 -0.026484927 -0.045466233 0.027407218 -0.0072459397 0.04245554 -0.010169658 -0.028564846
0.019359963 -0.0024158014 0.03757591 0.08531158 0.0645116 -0.004933039 0.053589053 0.03217074
0.016427204 -0.043446448 -0.085329644 -0.057667863 -0.06671582 0.07259728 0.017100142 0.036181018
-0.0011578674 -0.031821273 0.057834968 -0.07514787 0.0078425 -0.07223628 0.06461792 -0.007625364
0.054817315 -0.03164555 0.053107996 -0.06757908 -0.06009775 -0.0767886 0.078512765 0.03428946
0.06461882 -0.072067656 -0.07708567 -0.040426824 -0.021418598 0.052198987 0.054953847 0.08375848
-0.059683293 -0.053418808 0.03354382 -0.0445858 0.05339415 -0.03857675 0.020629637 -0.08232872
-0.05544224 0.015252657 0.015829828 -0.02648842 0.023116717 0.03876894 -0.054616313 -0.007913844
0.10371022 0.022038363 -0.006603123 -0.06637616 -0.04342226 0.035720658 0.005639726 -0.05047639
-0.010763874 -0.04500966 -0.04353184 -0.06443218 -0.060910456 -0.029212367 0.08186803 0.0024497104
0.013429425 -0.049088687 -0.07931496 -0.049320787 0.011093296 -0.080114275 -0.028067416 -0.02495842
-0.02299211 -0.02852721 -0.02998048 -0.03683741 -0.055983894 -0.07667638 -0.026415786 -0.09810169
0.03632454 -0.032748614 0.062554486 -0.02980637 -0.06947998 0.04987778 -0.031975202 -0.022198789
-0.04641289 -0.079575814 0.021264004 -0.012651328 0.015118846 -0.07862414 0.054190237 -0.057118025
-0.037521135 0.037797935 0.053672627 0.07167987 0.08708376 -0.07787962 0.07331284 -0.016695483
-0.00021670532 -0.019387068 0.111844145 -0.061704148 0.058441155 0.052583676 0.026393201 -0.013466393
0.08476435 0.01433684 0.019513244 -0.07264189 0.04300197 0.00090879435 -0.013300635 0.06848002
-0.0053186435 -0.04187432 -0.05181634 -0.0009065899 0.060803615 -0.0005073735 -0.058215804 0.0047342903
-0.03812129 0.054601643 0.078018814 -0.061894648 0.03335117 0.031237585 0.035171676 -0.02878455
0.031292297 0.047971014 0.004488336 0.0052837506 -0.0005813968 0.038093686 -0.025827749 -0.019868247
0.043087352 0.08463976 -0.022234563 -0.020229587 -0.00525368 -0.0019256695 0.021357905 0.008993425
-0.045616824 -0.043291498 0.051997278 0.04224369 0.0065803714 -0.051116537 -0.06400523 -0.099965155
-0.035096824 0.03884585 0.03730593 0.030677076 -0.065670006 -0.026333863 -0.028300792 0.079861544
0.0046469984 -0.014339981 0.04805228 -0.02786755 -0.05004297 0.089326754 -0.024598116 -0.008347645
-0.060200308 0.056204066 0.05426352 0.045555115 -0.07253512 -0.09481927 -0.07667448 0.08049392
0.027748795 0.041007064 0.02866362 0.01131289 0.017816229 -0.050904077 -0.0815274 -0.07559535
0.013563573 -0.032746397 0.0025519165 0.0018995513 -0.009757953 -0.077966236 -0.06565389 0.008015047
-0.056391228 0.034864206 -0.055424463 -0.03754459 0.01440378 -0.023273395 -0.0011150942 -0.09580289

shared.0.bias f4 [256]
00000000: 0122 563d e083 563c 04a2 233d ff54 84bd
00000010: 1e3b 45bd 05dd c9bd fe6e b43d 17e0 3b3d
00000020: 9dfa 8fbc 956a ae3c 20fb 48bd 348c 9f3d
00000030: f27e 65bd 3437 373d 9f3c 59bd 6d64 b73d
00000040: 38c0 ab3c 71f2 2f3d d6bc 0fbd 8ad2 bdbc
00000050: 4a91 12bd d49e 89bd 26d9 7a3d 3611 8b3d
00000060: dead afbc ab05 2d3d f674 9d3c 6433 fdbd
00000070: 611c cb3d 524a 423d 9820 a53d d46d 263c
00000080: b496 bfbd 6dc3 65bd 2ddb 273d 474e 69bd
00000090: b47f 59ba 0821 08bc 6717 fcbc 4bcd adbd
000000a0: 2087 953d 8c11 253d d50f eb3d d43d bc3d
000000b0: dd02 663d d078 acbd 42dc 303d fcab debc
000000c0: 4a92 dbbd 61d8 a43c a2e0 d7bd 9f7d 913d
000000d0: f688 9bbc 9d04 06bc bab8 6f3d 2360 623c
000000e0: 393e f0bc 2b85 4bbd 4948 0c3c 384d 053c
000000f0: ada8 8cbb 3106 e23b 2d45 c8bd 15c1 dfbd
00000100: 1cc4 44bd b959 a6bd 4d90 aebd 7de1 8d3d
00000110: 7e9d 6f3d 4dc7 d6bd f658 a2bd 3b9a 123d
00000120: a28e 973c e10d cb3d e933 953d 3f7d 1ebd
00000130: ae5a 04bd ce44 8ebd 44f0 96bd 2168 a53d
00000140: 46fb 6bbd 7bf9 49bd 2ebe 9a3d 4202 ccbc
00000150: 5bc6 a0bd 3fcb b5bb 7198 89bd ec86 923d
00000160: 4e70 223d e51d 0a3d 5959 043d 8e54 45bd
00000170: fa80 0cb9 2e27 d63d 7c3d 16bd e7a9 19bd
00000180: 2630 46bd 8d7d d23c 7a93 973d 47b8 aabd
00000190: 957a 653d 12ab 82bd 341a a13d 439f d2bd
000001a0: 70eb 223d c4ee c43d 63bb 45bd 226e 423b
000001b0: 9392 343d b148 4b3d 6dc7 753d 5c30 e13c
000001c0: eb49 adbc bd34 bb3d 42b8 b73d a370 9f3d
000001d0: 898e a73d 4c4c 123c 5f83 e1bd 3be7 52bd
000001e0: 1d31 703a 9b99 5b3b c31b 0bbd 6198 d3bd
000001f0: 60d4 1bbc 3ec9 8fbd 995c c13d 0fe2 983d
00000200: b127 34bd c471 7e3d f46b 1abd df48 8fbd
00000210: 09d0 98bd 4be0 823c abd6 a93d c4fe 13bd
00000220: fa80 883d 5c1a 20bd 8c58 b73d cd6b b6bd
00000230: 6b77 a93d 2e21 b8bc c40e a0bd 5310 2fbd
00000240: 611d 183d 6d48 5f3c 389e a23d 0dc1 b7bd
00000250: 4383 b73d aeeb bebd 6cb1 1e3d 8c3b 3f3d
00000260: 16b1 04bc 3cb1 acbd 04de 1c3d 41b5 55bd
00000270: b930 babd 5cad 4e3d c10c c43d 3728 6c3d
00000280: c769 683d 3693 e4bc c038 963d 1081 9cbd
00000290: db60 cebc f54d cf3b 5f43 0d3d ee28 bebc
000002a0: 555b a9bd c5ac 8b3d 1bd2 d23d 23e2 33bd
000002b0: bc17 bf3d 6dc0 ba3b 7e1a aebd a7cc cd3d
000002c0: a84e 0e3d e618 84bd c7fe 8fbd 78b8 91bd
000002d0: 7eb7 ad3d c60b f5bc 73b9 d5bd da52 db3c
000002e0: f674 b1bd bbbe 6a3d 9e10 973d 4333 98bb
000002f0: cc9b b1bd c678 c23d 9a4b 49bd 8847 3c3d
00000300: ff55 d5bc 66db a3bd 0fd7 cd3d 895f 453d
00000310: 0b76 6c3d 3693 a63d 8b55 b23d 99a3 7f3c
00000320: 282d e5bb 98c8 bfbd 7448 0abd c6a1 8f3d
00000330: 562a 2bbd fc5a bc3d fe41 e93c 92cf 403d
00000340: 58e3 93bc a7fc 51bd d656 7dbd d59f b23d
00000350: 5da1 843c a60c 54bd ce73 5a3d ce06 72bd
00000360: 98ac 00bd 24ae e0bd 3f3c 473d 9c16 2e3d
00000370: 1472 653c 5baa 853d 818d d13d 0a75 223d
00000380: c593 533c caeb 3f3d 44b5 c3bd e1c0 bcbd
00000390: 088f 8f3d 03b9 3bbc df05 a5bd ec4c 08bd
000003a0: e269 a53d a8b1 d53d 5e04 98bc b070 bebc
000003b0: 86b0 edbd f787 24bd 6da8 c83c be10 013b
000003c0: dd80 943b eaaf b93d ac51 733d d9d0 1ebc
000003d0: 32ec fb3c 474d a53d 2502 a0bd abf9 c23d
000003e0: a5aa c23d 35a2 183d 8d4e 5dbd 1077 c73c
000003f0: 55a2 ef3d 2363 3d3d fa9b d03d d796 b43d
0.052278522 0.013092965 0.039949432 -0.06461524 -0.04815208 -0.09856609 0.088102326 0.045868006
-0.017575556 0.021291057 -0.049067616 0.077904135 -0.056029268 0.04473038 -0.05303633 0.089547016
0.02096568 0.04295582 -0.035092197 -0.023171682 -0.03578309 -0.06719747 0.061242245 0.06790392
-0.021445211 0.042241734 0.01922081 -0.123633176 0.09917522 0.04743416 0.080628574 0.010158021
-0.09354916 -0.056094576 0.040980507 -0.056959417 -0.00082969223 -0.0083086565 -0.030772878 -0.08486422
0.07301164 0.040299937 0.11477629 0.0919148 0.056155074 -0.08421481 0.043178804 -0.027181618
-0.10721262 0.020122709 -0.10540892 0.071040384 -0.018986207 -0.008179811 0.05852578 0.013816866
-0.029326545 -0.049687546 0.008562156 0.008136086 -0.0042925687 0.0068977107 -0.09778819 -0.10925499
-0.048038587 -0.08122582 -0.08523617 0.06927774 0.058499806 -0.10487232 -0.07927124 0.035791617
0.01850063 0.099147566 0.07285292 -0.038693663 -0.03231304 -0.06946717 -0.07370046 0.08076502
-0.05761268 -0.04931019 0.07555805 -0.02490342 -0.07850333 -0.0055479105 -0.06718529 0.071546406
0.039657883 0.033719916 0.03231177 -0.04817634 -0.00013399488 0.10456692 -0.03667973 -0.037515547
-0.04838576 0.025694633 0.07401176 -0.08335929 0.056025106 -0.06380285 0.07866326 -0.10284283
0.039775312 0.096158534 -0.04827441 0.0029667695 0.044085097 0.04962987 0.06000464 0.02748888
-0.02115341 0.091409184 0.08970691 0.077851556 0.08181483 0.008929323 -0.11011385 -0.05149005
0.0009162592 0.0033508304 -0.033962023 -0.10331798 -0.009511083 -0.07020806 0.0944149 0.07464992
-0.043983165 0.062120214 -0.03770061 -0.06996321 -0.074615546 0.015976092 0.08292898 -0.036131635
0.06665225 -0.03908764 0.08952436 -0.0890728 0.0827473 -0.022476759 -0.07815316 -0.042740177
0.037137393 0.0136281075 0.07940334 -0.089723684 0.08960583 -0.09322296 0.03874342 0.046687648
-0.008098861 -0.08432242 0.038297668 -0.05217481 -0.09091324 0.050458297 0.09572745 0.05765554
0.056741502 -0.027902227 0.07335043 -0.07641804 -0.025192669 0.006326432 0.03448808 -0.023212876
-0.08269373 0.068200625 0.10293981 -0.043916833 0.09330699 0.0056992085 -0.08501147 0.100488
0.03474298 -0.064500615 -0.07031017 -0.07115263 0.08482264 -0.02991284 -0.10435762 0.026772905
-0.08664887 0.0573108 0.07376216 -0.0046447827 -0.08672294 0.09495692 -0.049144365 0.045966655
-0.026041983 -0.08000831 0.10050785 0.048186813 0.057729762 0.08133547 0.08707722 0.01560297
-0.0069939084 -0.09364432 -0.033760503 0.07013278 -0.04178842 0.091970414 0.02847385 0.047072954
-0.018052742 -0.05126634 -0.06185039 0.08721892 0.016190225 -0.051769875 0.053333096 -0.05908852
-0.0314146 -0.10970715 0.04864144 0.04250203 0.014004249 0.06526633 0.10232068 0.0396624
0.012913649 0.046855725 -0.09556058 -0.09216476 0.07009703 -0.011457684 -0.080577604 -0.033276483
0.08076836 0.10434276 -0.01855677 -0.023247093 -0.11605935 -0.04016873 0.024494374 0.0019693817
0.0045319633 0.09066756 0.05940406 -0.009693348 0.030752275 0.0807138 -0.07812909 0.09520277
0.09505204 0.037264068 -0.05402999 0.024348766 0.11700884 0.046237122 0.10186 0.08817833

shared.2.weight f4 [256, 256]
00000000: 7643 993c 2d73 133c 2d58 8cbd fcef 803c
00000010: 2a19 253a fce5 e43c 2916 273d c024 7cbc
00000020: 4e4c f83c 7dbe 0a3d c51d 92bc 9924 3fbd
00000030: 712a 15bc 41de 5b3d 2b2b f0bc 46ee 6dbb
00000040: 1c6f aebc 460a 3c3d 05f8 bdbc 1440 3b3d
00000050: 471b 6dbd 4c68 023d e965 23bd 5b23 5dbc
00000060: 3499 283d 3124 4f3d bba3 8abb 688f 393d
00000070: cdb6 68bc ba4a bcbc 05f2 a63c fe1d ccbd
00000080: e16f 863d ae0b 01bd e029 70bc 9259 a03b
00000090: 5615 b5bd c274 2a3d 1643 44bd 7dd0 b3bb
000000a0: b65a 953c efde 4f3d 9435 463d a33a 7abd
000000b0: 877c 03bd 9fdc 803d c44b 0cbd a1d2 62bd
000000c0: 6a8a 6e3d 6c56 e73c a106 58bd db1c f23c
000000d0: 0647 c137 43a7 2d3d d208 923a 1805 e2bb
000000e0: f66d 753d 951f 813c 2298 2a3d 591a 14bd
000000f0: 4069 95bb c4c8 a03d 5876 77bd 071d 97ba
00000100: dd61 f13c 0866 e53c c34c 4bbd 83ca 0dbb
00000110: 5334 0f3d 1012 cc3b f9bb dd3c 3e87 3b3d
00000120: ab94 753c a188 a93c a1e9 5bbd eab4 ac3c
00000130: 326f f6bc 6932 d9bc 5fb9 053d 866a 2f3c
00000140: 6cd2 c13c 83da 423d f270 623d dff4 1fbd
00000150: 9672 4abd 2729 debc 3cf8 eabc 1505 d6bc
00000160: 7499 773d fef0 7f3d cfa4 553d 74b9 0f3d
00000170: 921f 153c dd8d b1bd fd5e b9bc c0ce e7bc
00000180: 6116 713d c0ae 29bd 5eba 143d fda8 ed3c
00000190: 7dba 96bc 912c 4a3d 83cd 4a3d 3b04 443d
000001a0: 509a 8b3d 72ab 81bd 5f4b 5b3d 3f35 583d
000001b0: ef98 833c 083e 47bd e509 02bd fd4d 18bd
000001c0: d77a ff3c 196e ab3c 99bc c33c c94c 283d
000001d0: ef61 13bd a6b0 5a3d 49e2 af3c 2b69 a9bc
000001e0: fb64 b4bd 151f 2a3d 1dab 4e3c 389f 50bc
000001f0: 4691 9abd 919b 3f3c 66e6 6f3c e4da 52bc
00000200: 824d af3b e634 08bc a950 033d 158f 03bd
00000210: 0d52 5d3d a539 81bc da3d 4fbd 01ff 33bc
00000220: 8f0a 67ba 2afe f5ba b3d4 043c 11d9 d0bc
00000230: 4240 74bd ffc1 153d 9c72 3e3c 2346 ca3c
00000240: 31d3 093c a0d5 16bd 0efc 163d c5dd 853d
00000250: e431 003d e9e0 a63c b0c1 20bd 8c48 4a3c
00000260: a429 b13d 4aa1 893b a098 0d3c b71d 663d
00000270: 991c f9bc f9a8 053c 05fe 2abd 311c 39bd
00000280: ad95 87bd 7eef d0bd 7fbc 3bbd 7041 433d
00000290: b6fd 9bbd 9e49 2a3a e790 aabd 6a7d 843d
000002a0: 1122 9fbc 3d42 743d 5f86 bb3c 684e 1c3d
000002b0: 8bb3 9e3a 1675 c2bc 988a dbbc 1f00 2c3c
000002c0: b9fb 603d eeb2 0e3d 8598 203d 28d3 a7bd
000002d0: 160a 203d 9562 923c 6317 1ebd afc9 a33c
000002e0: 25fa 82bd 12a5 7d3c 6763 1a3d 8a7a a3bc
000002f0: 6bcc 623d 2382 483c 5bd7 453d 3ade a13c
00000300: 88f6 8cbc 5048 d2ba 092d 18bd 7dac 263d
00000310: f102 69bd b4b2 043d 66dd c53b 41ca 89bc
00000320: 8ad3 2abb 4683 b73b 3e45 16bd d335 3d3d
00000330: 88de fd3b e85e a7bc 99b8 4ebd b702 3a3d
00000340: c0de a7bc e86d 843d f8aa 793d da3f ce3b
00000350: 47f3 e03c ceae 08bd b017 5ebd 0339 063d
00000360: dcf6 bebc 9efd 8bbd 8d1d 0fbd df22 733d
00000370: fd1c 3abd b177 7abd d472 813c ea28 0cbd
00000380: f267 aebc 07e8 ec3c 67c1 493d 1b32 86bc
00000390: 6ad0 4a3d de6e 60bd e5ce 773d 77e5 34bc
000003a0: 79cb 2ebc c37d 0e3c 4608 1fbd a23c 0cbd
000003b0: bb61 b9bc 3609 63bd 925c 8cbd 75bf 44bd
000003c0: 5d4f 593d 4767 bd3c 548f 453d cac6 b7bb
000003d0: 22a8 4f3d 2855 3c3d 27ce e23c 9601 233d
000003e0: 20ed 1ebd d45e 303d c0f9 4b3d fc4b edbb
000003f0: c95f 963b 7cfb 5b3d 380d 2b3d 89f2 1b3d
0.018708926 0.008999628 -0.06852756 0.015739433 0.0006298 0.027941696 0.040792618 -0.015389621
0.030309822 0.03387307 -0.01783646 -0.04666576 -0.009104357 0.053678755 -0.02931746 -0.0036305352
-0.021293215 0.045908235 -0.023189554 0.045715407 -0.05788734 0.031837747 -0.03989211 -0.013497199
0.04116173 0.050571624 -0.004230944 0.04530278 -0.014203739 -0.022984851 0.020379076 -0.09966658
0.06564308 -0.03150528 -0.014658421 0.00489349 -0.0884196 0.041615255 -0.04791554 -0.0054875
0.01823173 0.050749715 0.04839094 -0.061091077 -0.03210118 0.0629208 -0.034251943 -0.055376653
0.05823747 0.028239451 -0.052740697 0.029554775 2.3040466e-05 0.04239584 0.0011141545 -0.00689758
0.05991932 0.01576213 0.04164899 -0.03615794 -0.004559666 0.07850793 -0.060415596 -0.0011529037
0.02946561 0.028002754 -0.049633753 -0.00216356 0.03496201 0.006227739 0.027067171 0.045783274
0.0149890585 0.020695033 -0.053689603 0.02108236 -0.030082319 -0.026513295 0.032647487 0.0107065495
0.023659907 0.04757167 0.055283494 -0.039051887 -0.049425684 -0.027119232 -0.02868282 -0.02612547
0.06044908 0.062485687 0.052159127 0.03508897 0.009101765 -0.086696364 -0.022628302 -0.028296828
0.058859233 -0.04142642 0.036310546 0.029011244 -0.018399471 0.049358908 0.049512397 0.047855597
0.06816542 -0.06331529 0.053538676 0.052785154 0.016064135 -0.048643142 -0.031747717 -0.03718375
0.031186504 0.020926522 0.023893641 0.041088853 -0.03598207 0.05339112 0.021470206 -0.02068003
-0.08808323 0.04153355 0.012614039 -0.012733273 -0.0754724 0.011694805 0.014642334 -0.01286957
0.005349816 -0.008313393 0.032059345 -0.032118876 0.054033328 -0.015774557 -0.050596096 -0.010986091
-0.0008813524 -0.0018767763 0.008107352 -0.02549413 -0.059631594 0.036561962 0.011624005 0.024691647
0.008412168 -0.036824822 0.03686147 0.0653644 0.03129758 0.020370917 -0.039247215 0.012346398
0.086505204 0.0042001354 0.008642346 0.056180682 -0.030409144 0.008157962 -0.04174616 -0.0451929
-0.06620345 -0.102019295 -0.04583406 0.047669828 -0.07616751 0.0006495955 -0.08328419 0.06469233
-0.019425424 0.059633482 0.022891222 0.03816071 0.0012107951 -0.023737472 -0.026799485 0.010498076
0.05492756 0.03483861 0.039207954 -0.08194572 0.03907212 0.017869273 -0.038596522 0.019993631
-0.063953675 0.01548125 0.037692454 -0.019955892 0.05537073 0.012238058 0.048301082 0.019759286
-0.017207399 -0.0016043279 -0.037152324 0.04069184 -0.05688757 0.032396987 0.0060383556 -0.016820075
-0.0026066029 0.005600366 -0.03668713 0.04619391 0.007747475 -0.020430997 -0.050469015 0.045412745
-0.020491958 0.064662755 0.060954064 0.006294233 0.027459754 -0.03336983 -0.05422181 0.032769214
-0.023311071 -0.06835483 -0.03494029 0.059359428 -0.0454378 -0.061149303 0.015801825 -0.034218706
-0.0212898 0.028919233 0.04925671 -0.016381314 0.049515165 -0.05479323 0.060500044 -0.011041037
-0.010668629 0.008696976 -0.03882625 -0.03423751 -0.02262961 -0.055428706 -0.06853594 -0.04803415
0.053054202 0.023120536 0.04823239 -0.0056084143 0.050697453 0.04597965 0.027686192 0.039796434
-0.03880036 0.043059185 0.049798727 -0.007241724 0.004589055 0.05370663 0.041760653 0.038073096

shared.2.bias f4 [256]
00000000: 5409 80bd 306e ac3d c511 8dbc 1bac bf3c
00000010: 8a3c e13c e1df 3c3d 0180 9fbd 3d77 203c
00000020: f49f 0f3c b791 c33d 9c22 bb3d 0431 92bc
00000030: 1edc 9dbd cb05 a3bb bc3f b83d a2db 80bd
00000040: 5427 4cbd 92de aebd 32ab b03c 0c4e 0c3c
00000050: 0d58 613c 07a9 fbbc 41f7 c1bd b893 de3c
00000060: 9f3a 923d 139e 8cbd eeed 1bbc 7b4d 913d
00000070: 123c 03bd 2094 79bd be6b 693d 1b27 443d
00000080: 9879 90bd 1ade 6ebc b9ce 99bc 4410 113d
00000090: b030 38bb 66c6 4cba 2791 333d e6f7 a6bc
000000a0: 000b 91bd 9245 313d 6630 f0bd 7cd4 973c
000000b0: 55a7 a93c 3c2e 0dbc 7eb0 c43d 647f 4b3d
000000c0: 1d18 ad3d 5f6a 883d 84a7 4e3c 1268 abbd
000000d0: 5256 083d 2cdc c7bd 707e 89bc 8374 b03d
000000e0: 07c8 7b3c 81af 0c3d 2ea1 ac3d 1794 ecbc
000000f0: 945f 05bc a83c b53d 49c4 563b 8af4 093d
00000100: 45b2 5bbd 4e63 e9bb 45b3 ad3d b446 b1bc
00000110: 54d0 793d c067 90bd 92dd 973d 4759 f03c
00000120: f2b8 febb d5ab 633d afd2 8abd 8421 2a3c
00000130: d831 883d 889b c53d 76a7 b0bc 9c4b 9e3d
00000140: 2e50 3cbd 992e 45bd dacb a83d c0c6 9dba
00000150: 8360 103d b04a 9bbd 652d 84bd 1fab 97bd
00000160: 34ed de3d 0f15 163d 4808 c23d 13c5 fb3c
00000170: aa58 0fbd b6e0 193b 3a7f bfbd bf05 903d
00000180: f016 db3c 17ea a83d bd5b 863c d0d8 6f3d
00000190: ed78 213d 0305 57bd 5d01 63bd ffbc ed3d
000001a0: d2e2 363d 232d 57bd 606f a3bc fca3 95bc
000001b0: 6522 02bd d7e9 183d bf86 e43c 6deb 65bd
000001c0: 3ff9 4fbd dcb9 88bc 5920 3fbc 7ec5 1fbd
000001d0: d05b 813d 3d41 9b3d afe9 9dbc 0ab9 8d3c
000001e0: df62 c83c b996 a53d 9513 323b 17ff bfbb
000001f0: f4ad a2bd a6c1 5bbd c398 64bd adaf 30bd
00000200: a533 a63c 6b6b 2dbd a87f b53d 8849 433c
00000210: c9c5 bdbd 4ba1 833d 74ec 1fbd 2d05 5dbd
00000220: e952 bf3c 1064 f43c 1f4d 88bd 566f 0bbd
00000230: aec5 8bbd e5e0 01bc 60be 783d e3d3 bbbd
00000240: ed17 1d3d 94e8 9fbc 3bac 553d f421 8a3d
00000250: cf78 603c 1da5 9bbb bd4a e03b 1874 b3bd
00000260: c67f 99bd b26d 103d 7f9d 6abc 8632 df3c
00000270: 28da aabd 4439 d1bc 78d8 a5bd 511a 893d
00000280: 4cca 09bc 6765 d6bd 3cae 683d acd4 193c
00000290: 110d 8f3c d1e3 213d b8ee d5bb ae1b a9bd
000002a0: 2620 c73d 6e76 b43d fe95 c33d 6200 aa3d
000002b0: ca42 9cbd b7a0 36bc 019c afbd ec85 943d
000002c0: a115 21bd d5f6 ed3d 3043 7fbd db53 063d
000002d0: 9f2c ab3d 6149 f93c 9820 babd a332 743b
000002e0: 2baf 303d 624d 1dbd bfbb afbd 00b5 c0bd
000002f0: e1c6 42bd 19a5 5f3d 1fc9 8d3d 1bd1 913c
00000300: 9e9e c4bd 6d22 cd3b 4a52 5ebb 2f8a ab3b
00000310: e520 6b3d 2541 3ebc 38c5 41bc 8d30 b8bd
00000320: afc8 623d b041 363d 557c df3c 2397 763d
00000330: b5ec 083d 7564 4bbd 2c70 783b 78f3 9f3d
00000340: 1ae8 173c 47e0 07bd ffa4 563d e82e 033d
00000350: ed0e 9e3d a928 413d 5e0f 39bd e240 66bc
00000360: 4b22 b0bc f0cc ab3d 8ded 47bb c062 9abb
00000370: e78f 7d3d 97a1 283b b499 a93c 1d3c b3bd
00000380: 9fa7 933b 0781 c23d 7b0e 7a3b 8517 99bd
00000390: 37b5 6ebc 737d 9e3c 6ea0 94bd 4219 46bd
000003a0: cb38 233c 5723 a23a 013b 61bc c0a9 b13d
000003b0: dd61 40bd 638d 493b 2e77 aebd 86f0 b4bc
000003c0: 1a7c ab3d 19fb 50bd 907c 0c3d 924e d7bc
000003d0: 1183 45bd 4b13 93bd 32f8 5abb 1ad9 43bd
000003e0: b813 59bc 4c5b 5dbd 1501 10bd 801c 1cbd
000003f0: 3be2 85bd 0a5f 90bd 64f3 723c aff9 2ebc
-0.06251779 0.08419454 -0.017220387 0.023397496 0.027494688 0.046111945 -0.07788087 0.009794054
0.008766163 0.09549277 0.091374606 -0.017845638 -0.07708 -0.004975056 0.08996531 -0.06291892
-0.049842194 -0.08538546 0.021566007 0.00856353 0.013753903 -0.030720247 -0.09470988 0.027170047
0.07140087 -0.06866088 -0.009517176 0.07094856 -0.03203971 -0.06093228 0.056987517 0.047888856
-0.07054442 -0.01457932 -0.01877533 0.035415903 -0.0028105192 -0.0007811546 0.0438396 -0.020381879
-0.07082176 0.043279238 -0.11727981 0.018533938 0.020709673 -0.00861698 0.09603976 0.049682036
0.08451865 0.06660914 0.012613181 -0.08369459 0.033285446 -0.09758791 -0.016783923 0.08615973
0.015367514 0.03434706 0.0842918 -0.028879208 -0.008140463 0.0884946 0.0032770804 0.033680476
-0.053636808 -0.0071224337 0.084814586 -0.02164016 0.060989693 -0.07051039 0.07415308 0.029339446
-0.007773512 0.055583794 -0.06778466 0.010383967 0.06650132 0.09648806 -0.021564227 0.07729265
-0.045974903 -0.048140142 0.082420066 -0.0012037382 0.03524829 -0.07582605 -0.06453971 -0.07405686
0.10885087 0.036641177 0.09474236 0.03073362 -0.034996666 0.0023479885 -0.093504384 0.07032346
0.026744336 0.08247774 0.016401166 0.058556378 0.039421964 -0.052495014 -0.055421222 0.11608314
0.044649906 -0.05253328 -0.019950569 -0.01826667 -0.031771082 0.037332382 0.027896283 -0.056132723
-0.05077481 -0.016690187 -0.011665427 -0.039006703 0.0631634 0.075808026 -0.019276468 0.017300148
0.024461208 0.08085389 0.0027172316 -0.0058592665 -0.07943335 -0.053651474 -0.055809747 -0.043136287
0.020288298 -0.04233877 0.08862239 0.011919387 -0.0926624 0.064272486 -0.03904386 -0.053960014
0.023354964 0.02983287 -0.06655335 -0.034041725 -0.06824814 -0.007927154 0.06072843 -0.091712736
0.038352896 -0.019520082 0.052166205 0.06744757 0.013700678 -0.0047499076 0.006844847 -0.087623775
-0.07495074 0.035260864 -0.014319777 0.027245771 -0.08342391 -0.025540002 -0.08097929 0.066944726
-0.008410048 -0.1046856 0.056806788 0.009389084 0.017462285 0.039523903 -0.0065287016 -0.082572326
0.09722929 0.08811651 0.09550093 0.08300854 -0.076299265 -0.011146716 -0.08574677 0.07252106
-0.039327268 0.11619345 -0.062319934 0.032794815 0.0835812 0.030430498 -0.09088248 0.0037261627
0.043135803 -0.038403876 -0.085807316 -0.09409523 -0.047552947 0.05460081 0.069231264 0.017799905
-0.09600566 0.0062602074 -0.003392356 0.0052349786 0.057404418 -0.011612211 -0.011826806 -0.08993635
0.055367168 0.04449624 0.027280966 0.06020273 0.033428866 -0.04965635 0.0037908657 0.0781011
0.009271646 -0.033172872 0.052403446 0.032027155 0.077176906 0.047157917 -0.04518067 -0.014053555
-0.021500727 0.08388698 -0.0030506582 -0.004711479 0.061904814 0.002573108 0.020703174 -0.087517
0.004506066 0.09497266 0.0038155604 -0.07475189 -0.014569572 0.019346928 -0.07257162 -0.04836393
0.009962271 0.0012370151 -0.013746978 0.08674955 -0.04696833 0.003075444 -0.085188255 -0.022087347
0.0837328 -0.051020715 0.03429848 -0.026282582 -0.048220698 -0.07181414 -0.0033412096 -0.047814466
-0.01324933 -0.054042146 -0.035157282 -0.038113117 -0.06537291 -0.07049377 0.014828537 -0.010679646

policy_head.weight f4 [5, 256]
00000000: 2f8c 943d 6a13 da3c 0b70 f4bc 057f 16bd
00000010: 77ec 1a3d f314 3d3d 83ab 223d 03f1 01bd
00000020: 7ab2 553d 3b56 9b3c 2a90 0b3d 994f 5ebd
00000030: 6a24 4739 3b8a 943c 0557 0e3d ae37 6bbd
00000040: bc91 d23b f5ff 8ebc 1589 903d b342 853c
00000050: 6a97 b23d 8839 2fbd 57f4 53bd f716 3c3d
00000060: 2b03 dc3d fc1e 72bc 3ffd 5f3d f9df 5b3c
00000070: 044a 183d ccff 9a3c d65c 163d 8973 633d
00000080: 55c6 88bb cbf8 d4bd 6f26 a43d 2483 68bc
00000090: 89ab eb3b b39e e33d acc0 6b3d 5ea1 823c
000000a0: fb8b 12bd b555 163d 28b7 9bbd abb9 aa3d
000000b0: e03f 02bb ac70 3b3c ab36 7b3d 26cb 73bd
000000c0: a11a b53d 3182 403d 0764 393d 0ac6 61bd
000000d0: 529e 8ebc 6aca a2bd 1cbd 92bd fc2e 973d
000000e0: 5f6e 1dbd 2f4f b23d de82 68bd a848 f4bc
000000f0: 2813 b13c 0227 e4bc f5ad 923d 07e7 c1bc
00000100: 72d5 d93c 716f ca3d 1281 e5bc 7897 df3c
00000110: 651c 47bd fb1f 32bc c266 673c cdc0 8a3d
00000120: a12d 2fbc 8991 4e3d 83d9 e13a 986b e2bc
00000130: 397b 25bd 023d 10bd 9c7c 95bd 9812 913b
00000140: 4a35 81bd b468 45bd dadc 813c e9d7 223d
00000150: 35d9 803d d8fa c5bc b8a1 1abc 6197 063d
00000160: 94f5 933d cc60 933c 2469 a43d 8002 1a3d
00000170: 7320 8dbd 8187 33bd 1352 483d 96f0 6c3d
00000180: a322 603d c7fb 9d3d c43a 0c3d e84b 913d
00000190: 6f6d 343c a5eb 8e3c f313 263d d7b7 773d
000001a0: f5ca e5bc 8a57 053c 130b 973d b50b 053c
000001b0: 0803 32bd a527 803d f00e 6c3d 0d99 283d
000001c0: 9361 3cbd 70c3 003d cb8f 88bd ef66 8cbd
000001d0: 48aa 25bc 1d05 38bd f495 533d 2222 1f3d
000001e0: 98db 1f3b 06d2 8f3d 6008 bbbc 4277 c1bc
000001f0: 7ef4 b53b a9ba 2b3d e0f3 abbd 80ad b6bd
00000200: 46ec 64bd 455d 7bbd c121 adbc 7798 0a3d
00000210: 4884 88bd c4ad bcbc 3201 81bd bfcc 21bc
00000220: 7fe8 9b3c d61a 373d b053 383c ecce 2fbd
00000230: a6f4 94bd 1e76 59bd c192 233d e1b2 8e3c
00000240: 77cf 1dbc 0746 86bd a9ed ab3d ddcc 9a3c
00000250: 2461 14bd 3acb 763d a07b a83d d0ad b6bc
00000260: e3b0 c9bd a55a 4ebd 7cd3 733d 445a 143d
00000270: c30f a0bd 0593 a2bc 143b 00bd bdda 5e3d
00000280: 3df4 8dbc 806e c3bd b738 a03c 41a5 16bd
00000290: e769 b6bd accc e4bc 6425 abbc 56c1 b7bd
000002a0: 5e42 5b3d 7bac 193d 2253 653d 6ad8 ae3d
000002b0: d13a 2b3c e940 4f3d 38b1 93bd f622 383d
000002c0: 41e7 843d 3764 793d b08c d73a 16ec c03d
000002d0: b476 06bd 11f3 c3bc f6e9 eb3c 5091 9c3b
000002e0: bb4b 443d 7915 313d e2d7 5c3d 0634 03bd
000002f0: 824e 82bd 86ad dd3c a67f d13d 8488 eb3c
00000300: b718 32bd 5d3c c13c 8600 00bd 7821 0a3c
00000310: c8e6 fa3c 0b8b 47bd 1961 34bd 4db5 91bd
00000320: b99f 19bd 5c97 f93c 3ccc 893d d496 38bb
00000330: 8e2d 643c 4fd6 0f3d 06ea 58bd efce 5abd
00000340: d8b3 98bd d2db 243d 52ae 84bd 6eaf 87bd
00000350: 09ff b23d 6a42 9bbd ecf8 d1ba 25ed f0bc
00000360: e787 e6bc 1040 1abd 0d3a 73bd 0927 3abc
00000370: d2ee 483d efeb 8c3c 3a39 12ba 4401 6dbd
00000380: 52b7 8c3d 52fc 8dbc 9f46 31bd 2627 86bd
00000390: 6845 c93c 916c 893d 1046 1ebc 67c5 08bc
000003a0: bf39 67bd 9bca 8f3d a9d4 493d 6369 af3d
000003b0: f612 d1bc aa19 9cbc 28ca adbd 44d2 0a3b
000003c0: c5ac 19bd a024 82bd 0deb c4bc 2329 87bd
000003d0: dc6c 39bd 4e88 5abd c7d0 0dbd 52de b1bc
000003e0: 270d 3f3d 94ed ddbc 3a83 9fbc 8ec5 e23c
000003f0: eff4 693c 6b79 45bc 1ab7 43bd dbcd 053d
0.072533004 0.026620585 -0.029838583 -0.03674223 0.037823167 0.046162557 0.039714348 -0.031723987
0.05217216 0.018962016 0.034073032 -0.05427513 0.00018991684 0.01813232 0.034750957 -0.057426147
0.0064260643 -0.017456034 0.07057396 0.016267156 0.08720286 -0.042779475 -0.051746693 0.04592034
0.10742792 -0.014777895 0.054684874 0.013420098 0.03717996 0.018920802 0.03670963 0.055530105
-0.0041740336 -0.10399016 0.08015143 -0.014191423 0.0071920794 0.11114254 0.057556793 0.015946086
-0.035778027 0.03670283 -0.07603294 0.083361946 -0.0019874498 0.011440437 0.061331432 -0.05951991
0.0884297 0.04699916 0.04526141 -0.055120505 -0.017409477 -0.07948764 -0.07164976 0.073820084
-0.038435336 0.08706509 -0.05676543 -0.029819801 0.02161558 -0.027850632 0.07162086 -0.023669733
0.026591036 0.09884537 -0.028015647 0.027293906 -0.048611064 -0.010871883 0.01412362 0.06775055
-0.010692031 0.050431762 0.0017230961 -0.027639195 -0.040400717 -0.03521443 -0.07299158 0.0044272654
-0.06308992 -0.048195556 0.01585238 0.03975669 0.06291429 -0.024167463 -0.009437971 0.03285921
0.07224575 0.017990492 0.080278665 0.03760004 -0.06890955 -0.0438304 0.048906397 0.057846628
0.054720532 0.07714038 0.03423573 0.07094556 0.011012419 0.017446348 0.04054637 0.060478058
-0.028050879 0.008138547 0.07375159 0.008120467 -0.043459922 0.062575616 0.057631433 0.041161586
-0.04599149 0.031436384 -0.06668051 -0.068555705 -0.010111399 -0.04492675 0.05165668 0.03885091
0.0024392363 0.07022481 -0.022831142 -0.023616437 0.0055528274 0.04192606 -0.08396125 -0.08919811
-0.05588939 -0.061368246 -0.02113426 0.033836808 -0.06665856 -0.023032077 -0.06299056 -0.009875475
0.019031761 0.044703327 0.011250421 -0.042921945 -0.072732255 -0.05309116 0.039934877 0.01741928
-0.009631983 -0.065563254 0.083949395 0.018896515 -0.036225453 0.060252406 0.082267046 -0.022299677
-0.098481916 -0.050379414 0.05952786 0.036218897 -0.07815506 -0.019845495 -0.03130634 0.054407824
-0.017328376 -0.095425606 0.019558294 -0.036778692 -0.08906918 -0.027929626 -0.020891853 -0.08972423
0.05353009 0.037518006 0.055987485 0.085373715 0.010451035 0.050599013 -0.07211536 0.044955216
0.06489421 0.060886588 0.0016445126 0.0942003 -0.032828048 -0.023919614 0.028798085 0.004778065
0.047923785 0.04323337 0.05391682 -0.032032035 -0.063626304 0.027060281 0.10229425 0.02875162
-0.0434806 0.023588354 -0.0312505 0.008430831 0.030627623 -0.048716586 -0.044037912 -0.071146585
-0.03750584 0.030467682 0.06728408 -0.0028166072 0.013926877 0.03511649 -0.052957557 -0.053420004
-0.074561775 0.0402487 -0.064785615 -0.066252574 0.0874005 -0.07581027 -0.0016019619 -0.029409954
-0.028140975 -0.03765875 -0.059381533 -0.011361846 0.04905588 0.017202346 -0.00055779854 -0.057862535
0.06870903 -0.01733223 -0.04328024 -0.06550436 0.024569228 0.067101605 -0.009660259 -0.008347846
-0.056451555 0.07021066 0.049275074 0.08565023 -0.025521737 -0.019055206 -0.08485824 0.0021182457
-0.03751828 -0.06354642 -0.024037862 -0.06599643 -0.045269832 -0.053352647 -0.034622934 -0.021712456
0.046643402 -0.027090825 -0.019471753 0.027682092 0.014279588 -0.012052874 -0.04778204 0.032667022

policy_head.bias f4 [5]
00000000: 6364 993d e379 903d aba6 d13b 1563 183b
00000010: 4803 a1bc
0.0748985 0.07054498 0.006398042 0.0023252417 -0.019654885

value_head.weight f4 [1, 256]
00000000: b927 d43c 4938 c9bd 3f68 c2bd a938 c4bd
00000010: c2c5 01bd 106e a4bd 8a91 6b3d ed30 ccbd
00000020: f6ab ad3d 902f 9fbd 3481 65bd ffc0 75bd
00000030: 01b0 3a3d 5bce bc3d 4ce5 b7bd fe32 833d
00000040: 5883 7f3d 3fa4 463d 54d4 e6bd 4961 b0bd
00000050: 06e0 19bd d529 97bd 50a8 873d 0a75 ebbc
00000060: 7837 a0bc 96fa d33d 58ed 653d 8cab ccbd
00000070: 00b6 b23d 0db1 7c3d b404 993d d0b3 bf3d
00000080: c67a c43d 8dfe ac3d 8c51 53bd 7cbe c5bd
00000090: dea8 d63d ba9b a1bc 7098 3b3d 2044 bf3d
000000a0: a9a0 813d a9fe a7bd 9ffb 333d 9ae5 a1bd
000000b0: 6bd4 aa3d 9137 263c b28f 4dbd b609 85bd
000000c0: ece0 eebc 19a5 99bd fe7d adbd 122e 853d
000000d0: bb74 a7bd c81c 293d 1815 09bd fc47 2abd
000000e0: e438 cdbd cb1b 4bbd 0372 b6bd 261c ef3d
000000f0: 1390 4e3d 77bf 9ebd 51f3 babd 0937 83bd
00000100: b660 573d de2b 843c 277f d6bd f91c efbc
00000110: 2451 90bd 70b3 fa3d 29e8 85bd 1622 973d
00000120: 04fb cb3d 1b4d 0e3d 9ef6 e63d 6447 e3bd
00000130: cf78 d0bd 3e4e cdbd 297e 403d 3adf ebbd
00000140: 93fc af3d d268 9c3b a190 4cbd 5131 da3d
00000150: a41d b3bd b3ab bf3d 6254 863d d175 253d
00000160: 4b26 0bbd be26 a2bd 187a 9ebd 74fb 8dbd
00000170: fe39 a83d 779a f8bd b72c 723d 693e d7bd
00000180: dbf0 c33d da82 87bd f4ac babd 99a6 b4bc
00000190: c47e 93bd 430b 433d 7dfa ee3d a267 7cbd
000001a0: 4323 ae3c d1fb 893d 588b 633d a3fe b5bd
000001b0: 12a9 28bc a261 c0bd 9edb cebd 61c9 e93d
000001c0: 278d 843d a11b d0bd ea3f a93d 726f dc3d
000001d0: ded6 69bd d723 19bd 17d7 a43d 11ad 61bd
000001e0: 4f0f b8bd acfb 9bbd d171 383d 73c1 b73d
000001f0: 5a10 d73d c974 103d daff a73d 1c6b 92bc
00000200: cc09 a13d e132 913c b7a9 b0bd 7266 c23d
00000210: af88 b23d 368f a8bd 513b 9f3c 6063 8a3d
00000220: 921c f1bd 28f6 dabd a107 7c3d b7d4 47bd
00000230: 3d19 a43d f860 eebc f3ba cebd 04e8 a03d
00000240: d76e f9bd 06df ab3d 6ffa 2d3d 7cfa 9fbd
00000250: 62bd 363d 3e66 db3d b176 93bd 5e17 c43d
00000260: 72d5 b23d 44c9 1e3b 064e b2bd 3608 9abd
00000270: 859d eb3d 15fd 87bd 8af7 8b3d 9d15 ccbd
00000280: 6e83 d9bd 62dd 913d 6743 ce3b d067 aebd
00000290: f515 403d 88ae dfbd b8e3 df3d 3bfc d73c
000002a0: 688c dabd e780 0f3d 0e25 b1bd 8cdd bfbd
000002b0: 5806 8c3d 4235 ca3d 419f 203d 075e 3cbd
000002c0: 039f c03d fcd7 35bd 1979 b63d d30c 14bd
000002d0: d412 ccbd 9a20 d2bd 4162 d23d b307 a83d
000002e0: d5b9 9f3d 9edb b43d 251d 893d 1332 d93d
000002f0: 3b78 773d 1e21 613d 85f0 a5bb 1e6c c23d
00000300: 1ecd a53d 0f74 47bd 323a 48bd 19d6 9ebd
00000310: 2100 99bd ea85 9ebd 95cd 723d e45e 9a3d
00000320: 7677 f2bd 4e11 c0bc b858 c2bd eff3 b6bd
00000330: 676b b0bd be9a bd3d b92f 953d 195a 5ebd
00000340: b7de dabc 5d13 dd3d e114 6bbd e4c5 7f3d
00000350: 4d5a 85bd 9954 d03c d3b5 ad3d dd8d 9bbd
00000360: f081 b5bd 3fb0 81bd 05ec 0cbc ec94 81bd
00000370: 684b 81bd 8d2f 773d 5d18 c53d 3b07 143d
00000380: a0b1 b9bd 241a d6bc c723 b8bd 45de bd3d
00000390: 3073 9abd ea99 523d 7592 8b3d 2295 8a3d
000003a0: a0fa c1bd befd 1fbd 0035 dbbd c3a5 35bd
000003b0: 01e2 803d c7b2 be3d f37f a73d e84a d43c
000003c0: d55d d6bd 7b5e ee3d 2249 87bd 362b 933d
000003d0: 86ab d53d 2651 d73d bea5 ed3c 66f0 53bd
000003e0: bfa2 d13d 3656 993d 1183 b13d 8be5 6e3d
000003f0: 1988 a13d 5a27 ad3d 54c6 eb3c 5d22 d33d
0.025897847 -0.09825189 -0.094925396 -0.095811196 -0.031682737 -0.08028805 0.057511844 -0.09970269
0.084800646 -0.07772744 -0.05603142 -0.05999851 0.045578007 0.09219047 -0.08979282 0.0640621
0.06238112 0.04849648 -0.11270967 -0.08612306 -0.03756716 -0.07381026 0.066239 -0.028742332
-0.0195577 0.1035053 0.05613455 -0.099936575 0.0872612 0.061692286 0.074716 0.093604684
0.0959373 0.08446989 -0.05159144 -0.09655473 0.104814276 -0.019727577 0.045799673 0.09339166
0.063294716 -0.082028694 0.043941136 -0.07905121 0.08341297 0.010145084 -0.050185867 -0.06495993
-0.029159985 -0.07502193 -0.08471297 0.06502928 -0.081765614 0.041287214 -0.033467382 -0.041572556
-0.10020617 -0.049587052 -0.08908465 0.11675291 0.05043037 -0.07751363 -0.0912844 -0.064069815
0.052582465 0.016134199 -0.10473471 -0.02918862 -0.07046726 0.12241256 -0.06538422 0.07379548
0.09959987 0.034741502 0.11277507 -0.11097601 -0.101792924 -0.10024689 0.046995316 -0.115171865
0.085930966 0.0047732377 -0.049942616 0.106539376 -0.08745888 0.09358921 0.065590635 0.04039556
-0.033972066 -0.07917546 -0.07738131 -0.069327265 0.08214186 -0.12138837 0.059124675 -0.10509951
0.09567424 -0.06616755 -0.091150194 -0.022052096 -0.07201913 0.047618162 0.116688706 -0.06162227
0.021257048 0.06737483 0.05555281 -0.08886459 -0.010294216 -0.09393622 -0.101004824 0.11415363
0.06472235 -0.1016152 0.08264144 0.10763444 -0.05708968 -0.037387695 0.08048838 -0.05509669
-0.08987295 -0.07616362 0.04503042 0.089724444 0.10501166 0.035267625 0.08203097 -0.01787334
0.07863197 0.017724456 -0.086261205 0.09492196 0.087174766 -0.0823044 0.019437464 0.067572355
-0.117730275 -0.10691482 0.061530713 -0.048786845 0.08012626 -0.029098973 -0.100942515 0.078567535
-0.12179344 0.08392148 0.04247516 -0.07811448 0.044614203 0.107128605 -0.07200373 0.095747694
0.08732118 0.002422885 -0.08706288 -0.07521097 0.11504654 -0.066400684 0.06834324 -0.0996506
-0.10620771 0.071223035 0.006294656 -0.085158944 0.04689594 -0.10921961 0.10932106 0.02636539
-0.106713116 0.03503504 -0.08649646 -0.093684286 0.068371475 0.09873439 0.039214376 -0.04598811
0.09405329 -0.044395432 0.08909816 -0.036145043 -0.09964529 -0.102601245 0.10272647 0.082045935
0.077991165 0.08830951 0.06695012 0.10605254 0.060417395 0.054963224 -0.0050640726 0.09493278
0.080957636 -0.048694666 -0.048883624 -0.0775568 -0.07470728 -0.07740386 0.05927809 0.0753763
-0.118391916 -0.023445752 -0.09489578 -0.089332454 -0.08614235 0.0925803 0.07284493 -0.054285143
-0.026717527 0.10794709 -0.05739296 0.062444583 -0.06511364 0.025430964 0.08481946 -0.07595418
-0.08862674 -0.063324444 -0.008601193 -0.06327233 -0.06313211 0.060348082 0.096237876 0.036139708
-0.090670824 -0.026135512 -0.08991199 0.0927091 -0.075415015 0.051416315 0.06815044 0.06766726
-0.09471631 -0.039060347 -0.10703468 -0.044347536 0.06293107 0.09311443 0.08178701 0.025914624
-0.10467116 0.116391145 -0.06605746 0.07185976 0.10433106 0.10513525 0.029009696 -0.051742934
0.102361195 0.074871466 0.08667577 0.058324378 0.07887287 0.08454771 0.028781094 0.10309289
